_________________________________________________________________
Layer (type)                 Output Shape              Param #   
=================================================================
embedding_7 (Embedding)      (None, 50, 100)           85600     
_________________________________________________________________
dropout_3 (Dropout)          (None, 50, 100)           0         
_________________________________________________________________
conv1d_3 (Conv1D)            (None, 46, 64)            32064     
_________________________________________________________________
max_pooling1d_3 (MaxPooling1 (None, 11, 64)            0         
_________________________________________________________________
lstm_9 (LSTM)                (None, 100)               66000     
_________________________________________________________________
dense_13 (Dense)             (None, 50)                5050      
_________________________________________________________________
dense_14 (Dense)             (None, 856)               43656     
=================================================================
Total params: 232,370
Trainable params: 232,370
Non-trainable params: 0
_________________________________________________________________
None
Epoch 1/100
2338/2338 [==============================] - 2s 997us/step - loss: 6.6892 - acc: 0.0577
Epoch 2/100
2338/2338 [==============================] - 0s 187us/step - loss: 6.0922 - acc: 0.0744
…
