_________________________________________________________________
Layer (type)                 Output Shape              Param #   
=================================================================
embedding_4 (Embedding)      (None, 50, 50)            42800     
_________________________________________________________________
lstm_5 (LSTM)                (None, 50, 100)           60400     
_________________________________________________________________
lstm_6 (LSTM)                (None, 100)               80400     
_________________________________________________________________
dense_7 (Dense)              (None, 100)               10100     
_________________________________________________________________
dense_8 (Dense)              (None, 856)               86456     
=================================================================
Total params: 280,156
Trainable params: 280,156
Non-trainable params: 0
_________________________________________________________________
None
Epoch 1/100
2338/2338 [==============================] - 4s 2ms/step - loss: 6.6368 - acc: 0.0701
Epoch 2/100
2338/2338 [==============================] - 3s 1ms/step - loss: 5.9692 - acc: 0.0744
…
